best_genshin_chatbot.pth (torch, 173304 bytes, 4 tensors)

fc1.weight f4 [256, 147]
-0.061321188 -0.0794457 0.15914126 -0.008049982 0.18578273 -0.0098079 0.15607883 0.14327371
-0.08218332 -0.0967558 -0.21997988 0.1903312 -0.0022246838 -0.13239011 0.14408019 -0.07008482
0.093439125 0.066267386 0.2493288 -0.035213966 0.18085195 0.19932747 0.29564098 0.12576349
0.26397896 -0.22722971 0.1395222 -0.13029148 -0.24493198 -0.07746287 0.12197264 -0.1892061
0.12100488 0.08381219 0.17451264 0.058269862 0.17145118 -0.12932634 0.08664815 0.08040591
0.3019004 -0.09004482 -0.17289975 -0.06400172 0.14736034 -0.1470199 0.06584797 0.03094921
-0.14089078 -0.14104599 0.00056238996 -0.13933754 -0.14113683 0.085682176 0.22680235 0.12911595
0.20767903 0.24987863 -0.022928594 -0.18961981 0.18600963 0.2716767 0.117108345 0.12356338
-0.022413896 0.06960564 0.20305897 -0.037924435 0.00303162 -0.29878953 -0.06950443 -0.15769538
-0.3255877 0.10580961 -0.024551693 -0.1388148 -0.12511107 -0.051706042 -0.314889 -0.20002641
-0.11183712 -0.40733796 0.17991571 -0.23886919 -0.07507205 -0.19181031 -0.045444977 -0.14942239
-0.05219998 0.13485129 0.059269994 -0.037901357 -0.041009784 -0.1506498 0.032434158 -0.09550696
0.13446105 0.10840579 -0.23991425 -0.14944918 0.0022948247 -0.35231593 -0.30985263 -0.120855175
0.022882102 -0.17919242 0.20082492 -0.265111 0.10857409 0.08846863 -0.21450062 -0.14461371
0.051588546 -0.2255713 0.007477343 -0.24269967 0.09990958 0.13227557 -0.024390072 0.024281591
-0.1421612 0.101488486 0.06873218 0.21522976 0.101505704 -0.3242774 -0.1416761 -0.16171665
0.08522398 0.025624776 0.16217917 -0.03902628 -0.17007846 0.085403524 0.097004615 0.20841
0.04800253 0.052784387 0.16577232 -0.041128498 0.28034303 0.21747401 -0.14948787 -0.1422822
0.16070421 0.10733823 -0.097665586 -0.18477714 0.0068321433 0.040924966 0.25352156 -0.14497596
-0.15082043 0.06566606 0.054069083 -0.0123720635 -0.11092683 -0.21711437 0.273132 -0.056775708
-0.2029412 0.13087961 0.0126127815 0.17263271 0.1783528 0.3764794 0.015256541 0.23824675
0.24747576 0.32942402 -0.14033653 0.18991728 0.18402825 0.11009803 0.020504674 -0.23588039
0.103176 0.27566877 -0.14533576 -0.17058408 0.11099575 -0.22594763 0.20787145 -0.11239644
0.085930645 0.05453921 0.13958533 0.35370147 0.111319415 0.20143853 -0.12817334 0.004437119
0.17613852 0.22458841 0.1343396 0.047613807 0.036830287 0.10651321 0.05518411 0.118071
0.018612355 0.045273867 0.38915765 -0.099399105 -0.09935971 0.028828861 -0.17210586 -0.09933543
-0.09945652 0.06535869 0.18261869 0.13860263 -0.20864533 0.18719192 -0.0013535542 0.117787294
-0.3113812 -0.08302319 -0.18173206 0.26520166 0.33595267 -0.0053425776 -0.021458607 0.18099436
-0.02232255 0.11080992 0.2007901 0.14465277 0.32871422 -0.1361352 0.13386717 -0.020874407
-0.06266602 0.14265001 -0.13188982 0.0013406842 0.042012163 0.12503931 0.050234277 0.06897085
0.06944745 -0.12353161 -0.08472077 0.047290027 -0.0035396127 -0.30509862 0.11498019 -0.11759763
-0.30926102 -0.25766292 0.090147875 -0.08713125 0.014469843 0.35379043 0.13529733 0.10521574
00000000: ed2b 7bbd 6db4 a2bd edf5 223e 12e4 03bc
00000010: d43d 3e3e 50b1 20bc 21d3 1f3e 58b6 123e
00000020: ba4f a8bd e827 c6bd 6842 61be 2fe6 423e
00000030: 00cc 11bb 4691 07be c289 133e a188 8fbd
00000040: 035d bf3d 32b7 873d 0d50 7f3e 853c 10bd
00000050: 4131 393e 801c 4c3e 415e 973e 25c8 003e
00000060: 4028 873e e8ae 68be e8de 0e3e 216b 05be
00000070: 73cf 7abe daa4 9ebd cbcc f93d 3ebf 41be
00000080: 68d1 f73d baa5 ab3d 71b3 323e 61ac 6e3d
00000090: e690 2f3e 206e 04be 9674 b13d dbab a43d
000000a0: b092 9a3e 6b69 b8bd a20c 31be 5513 83bd
000000b0: a1e5 163e 628c 16be 4ddb 863d 3389 fd3c
000000c0: ac45 10be 5c6e 10be 5a6d 133a 80ae 0ebe
000000d0: 2c86 10be 237a af3d e03e 683e f936 043e
000000e0: d0a9 543e 2fe0 7f3e bfd4 bbbc b22b 42be
000000f0: 4f79 3e3e 3519 8b3e 80d6 ef3d cc0e fd3d
00000100: 599d b7bc 678d 8e3d b1ee 4f3e a756 1bbd
00000110: 25ae 463b f1fa 98be 5758 8ebd e67a 21be
00000120: 6eb3 a6be b5b2 d83d a220 c9bc 7825 0ebe
00000130: 1e1d 00be b7c9 53bd 2239 a1be b9d3 4cbe
00000140: dc0a e5bd 9a8e d0be d33b 383e 209a 74be
00000150: 60bf 99bd ec69 44be 8324 3abd 2f02 19be
00000160: a5cf 55bd 7516 0a3e 18c5 723d 743e 1bbd
00000170: e0f9 27bd f143 1abe aed9 043d 2799 c3bd
00000180: 28b0 093e db03 de3d 15ac 75be 3509 19be
00000190: c564 163b c162 b4be 01a5 9ebe eb82 f7bd
000001a0: 3f73 bb3c 387e 37be 0ca5 4d3e a1bc 87be
000001b0: 185c de3d 0b2f b53d 0da6 5bbe 9e15 14be
000001c0: 834e 533d 2afc 66be 8004 f53b 4386 78be
000001d0: 659d cc3d 3f73 073e b0cd c7bc 30ea c63c
000001e0: b592 11be 32d9 cf3d 75c3 8c3d 3165 5c3e
000001f0: 39e2 cf3d b007 a6be 8a13 11be 0d99 25be
00000200: e989 ae3d 0deb d13c 4c12 263e 05da 1fbd
00000210: 0c29 2ebe 0be8 ae3d 5baa c63d 6e69 553e
00000220: 4d9e 443d 7134 583d 38c0 293e 5b76 28bd
00000230: 1f89 8f3e 82b1 5e3e 5913 19be 6db2 11be
00000240: a58f 243e 25d4 db3d e504 c8bd 3836 3dbe
00000250: 2ce0 df3b f0a0 273d 94cd 813e 9474 14be
00000260: ac70 1abe ed7b 863d 8b77 5d3d 32b4 4abc
00000270: 9b2d e3bd 3b53 5ebe f5d7 8b3e a58d 68bd
00000280: d1cf 4fbe 4e05 063e d7a5 4e3c a1c6 303e
00000290: 1ea2 363e e8c1 c03e 92f6 793c f5f6 733e
000002a0: 496a 7d3e 44aa a83e 61b4 0fbe ad79 423e
000002b0: e771 3c3e 137b e13d 6bf9 a73c a18a 71be
000002c0: f04d d33d 7524 8d3e e6d2 14be 98ad 2ebe
000002d0: bd51 e33d d15e 67be 41dc 543e 1b30 e6bd
000002e0: 68fc af3d 8264 5f3d 75ef 0e3e 5c18 b53e
000002f0: 6ffb e33d e745 4e3e df3f 03be 4065 913b
00000300: a85d 343e 81fa 653e 5290 093e b206 433d
00000310: 5bdb 163d 9923 da3d bc08 623d 35cf f13d
00000320: f078 983c 1771 393d ac3f c73e c291 cbbd
00000330: 1b7d cbbd 812a ec3c 853c 30be 6070 cbbd
00000340: dcaf cbbd c7da 853d 6500 3b3e d9ed 0d3e
00000350: 1fa7 55be 3daf 3f3e be69 b1ba 773a f13d
00000360: 5b6d 9fbe 1008 aabd f817 3abe 83c8 873e
00000370: fd01 ac3e ca10 afbb f6c9 afbc 9656 393e
00000380: c8dd b6bc 50f0 e23d ec9b 4d3e db1f 143e
00000390: 3b4d a83e 0767 0bbe 7a14 093e ce00 abbc
000003a0: 0b57 80bd d812 123e 200e 07be e6b9 af3a
000003b0: f214 2c3d 4e0a 003e 75c2 4d3d 9740 8d3d
000003c0: 773a 8e3d 24fe fcbd 1582 adbd 30b3 413d
000003d0: d9f8 67bb e335 9cbe bc7a eb3d 07d7 f0bd
000003e0: 7657 9ebe 65ec 83be 739f b83d de71 b2bd
000003f0: ec12 6d3c 0524 b53e 628b 0a3e 5a7b d73d

fc1.bias f4 [256]
0.21697628 0.09933439 0.1987985 0.25188196 0.30194005 0.27812532 0.19921951 0.19484048
0.20090021 0.24681997 0.13589987 0.24343498 0.20764454 0.18759763 0.1248095 0.1840575
0.019913055 0.23206271 0.16227007 0.01151671 0.16343877 0.13746864 0.1559419 0.23917061
0.21416663 0.2732212 0.21133935 0.2529571 0.30061054 0.114654936 0.17685835 0.250261
0.16658673 0.07872714 0.2871186 0.23351808 0.26128525 0.14876471 0.16704924 0.27709216
0.06417834 0.22150786 0.14186049 0.011026586 0.013594372 0.24456209 0.20137222 0.13467082
0.18744448 0.15275514 0.2557024 0.2566016 0.14975433 0.28883326 0.13635147 0.16376893
0.3065419 0.1445999 0.30956873 0.15238075 0.040048067 0.30356923 0.19153255 0.22255097
0.21450484 0.29538494 0.11669981 0.16104157 0.20807333 0.18383272 0.145446 0.23394841
0.31606498 0.2823721 0.1502688 0.18237284 0.22460493 0.15870175 0.27641943 0.24349636
0.2972466 0.32192796 0.22485258 0.26583183 0.13828364 0.29015097 0.10660119 0.15880379
0.23637475 0.12673587 0.28087267 0.25339034 0.19673873 0.16620934 0.15345518 0.2158136
0.21730617 0.22801301 0.22840674 0.25435236 0.064956516 0.1260492 0.1779153 0.23159271
0.07719575 0.07427048 0.13008574 0.18705258 0.24805757 0.16295768 0.2202671 0.21636218
0.23042464 0.16154034 0.24130955 0.20872861 0.30210173 0.063323565 0.23831342 0.064160995
0.17473496 0.17293583 0.29325476 0.24058554 0.29406342 0.31312338 0.21238348 0.24883892
0.22585905 0.24970493 0.18489367 0.26429597 0.22633457 0.10095197 0.22547045 0.2239618
0.220005 0.14933603 0.08378597 0.20701763 0.32048902 0.14644817 0.18785419 0.20190023
0.24778654 0.13849412 0.12926556 0.27566168 0.10033008 0.2315967 0.07558918 0.23196858
0.30332974 0.1869346 0.1603993 0.24007764 0.211602 0.15247858 0.1632389 0.17241628
0.1950526 0.20411803 0.16758278 0.16820422 0.1509054 0.17424637 0.19993185 0.18528889
0.30155584 0.17096925 0.25746414 0.2744984 0.10948812 0.17439571 0.27800325 0.3240927
0.114922695 0.24775934 0.21570851 0.26659188 0.17356545 0.045223195 0.15399064 0.25628334
0.24461474 0.21574998 0.20752114 0.12003865 0.30128476 0.18872324 0.073031925 0.24959181
0.085733175 0.06799795 0.16406392 0.28752318 0.22659163 0.2695347 0.12122034 0.16597497
0.22875631 0.15314491 0.08392392 0.24004649 0.19826576 0.23065956 0.21532802 0.2959107
0.23797405 0.20310362 0.15356286 0.2406495 0.17669 0.16595061 0.18030222 0.20475504
0.15595795 0.13359779 0.106978804 0.19034302 0.19478819 0.27985162 0.19861326 0.0698007
0.24320953 0.30073357 0.25840992 0.18055587 0.050121706 0.23060116 0.1542483 0.120668724
0.25439188 0.11632924 0.17407325 0.13760684 0.19782622 0.27486598 0.11281279 0.25589702
0.24753025 0.2619196 0.24698576 0.2646248 0.12235882 0.13413419 0.22371905 0.04496663
0.16146027 0.28700027 0.11131856 0.2726439 0.16150165 0.18587315 0.21080136 0.18175645
00000000: 082f 5e3e d46f cb3d d591 4b3e acf6 803e
00000010: e397 9a3e 7166 8e3e 3300 4c3e 4384 473e
00000020: c9b8 4d3e 60be 7c3e 5629 0b3e 0547 793e
00000030: c5a0 543e 9819 403e 209c ff3d 9279 3c3e
00000040: b420 a33c d9a1 6d3e 202a 263e 95b0 3c3c
00000050: 7e5c 273e 94c4 0c3e 3caf 1f3e 24e9 743e
00000060: 7f4e 5b3e a6e3 8b3e 5869 583e 9883 813e
00000070: a0e9 993e 35d0 ea3d 5b1a 353e 3622 803e
00000080: b695 2a3e b23b a13d 3601 933e 5d1f 6f3e
00000090: 2ec7 853e c755 183e f50e 2b3e 06df 8d3e
000000a0: ef6f 833d f5d2 623e e043 113e dba8 343c
000000b0: eeba 5e3c 7c6e 7a3e 8534 4e3e 26e7 093e
000000c0: 72f1 3f3e d86b 1c3e 6deb 823e 4961 833e
000000d0: 3359 193e f4e1 933e b89f 0b3e 0bb3 273e
000000e0: 0ff3 9c3e ff11 143e cb7f 9e3e b309 1c3e
000000f0: 7109 243d 6d6d 9b3e 1c21 443e 67e4 633e
00000100: 28a7 5b3e b23c 973e 4f00 ef3d 15e8 243e
00000110: 2d11 553e a53e 3c3e ccef 143e 2c90 6f3e
00000120: 45d3 a13e 1393 903e 10e0 193e f2bf 3a3e
00000130: d6fe 653e b682 223e d986 8d3e 1c57 793e
00000140: b530 983e bed3 a43e c13f 663e 1c1b 883e
00000150: 3a9a 0d3e ab8e 943e ba51 da3d 769d 223e
00000160: 390c 723e 0cc7 013e 8bce 8f3e 61bc 813e
00000170: e175 493e c832 2a3e 5b23 1d3e 3efe 5c3e
00000180: 8285 5e3e 3e7c 693e 75e3 693e 793a 823e
00000190: ec07 853d 0b13 013e 6e2f 363e a426 6d3e
000001a0: ce18 9e3d 1f1b 983d 3235 053e b68a 3f3e
000001b0: ce02 7e3e 61de 263e b38d 613e 0c8e 5d3e
000001c0: 70f4 6b3e d56a 253e da19 773e f4bc 553e
000001d0: 14ad 9a3e c9af 813d 6f08 743e d766 833d
000001e0: b9ed 323e 1716 313e 7d25 963e 0e5c 763e
000001f0: 7b8f 963e b551 a03e 0e7b 593e a1cf 7e3e
00000200: 9847 673e a6b2 7f3e c454 3d3e cd51 873e
00000210: 40c4 673e e8bf ce3d bae1 663e 3e56 653e
00000220: fe48 613e 8beb 183e fb97 ab3d 6efc 533e
00000230: 2317 a43e 82f6 153e d95c 403e efbe 4e3e
00000240: c1bb 7d3e 67d1 0d3e 315e 043e 8723 8d3e
00000250: db79 cd3d af27 6d3e 80ce 9a3d 2c89 6d3e
00000260: 094e 9b3e c96b 3f3e b73f 243e ead6 753e
00000270: 32ae 583e 5823 1c3e 1928 273e e58d 303e
00000280: debb 473e 5104 513e d29a 2b3e ba3d 2c3e
00000290: f286 1a3e a46d 323e efba 4c3e 5fbc 3d3e
000002a0: 8765 9a3e 9012 2f3e 57d2 833e 0e8b 8c3e
000002b0: 4f3b e03d ca94 323e 7156 8e3e 7aef a53e
000002c0: 975c eb3d a0b4 7d3e b1e2 5c3e bb7e 883e
000002d0: 24bb 313e f53b 393d b9af 1d3e 9237 833e
000002e0: 497c 7a3e 90ed 5c3e 6c80 543e d3d6 f53d
000002f0: ff41 9a3e aa40 413e c391 953d ff94 7f3e
00000300: e094 af3d 8242 8b3d 5f00 283e 3d36 933e
00000310: a307 683e 7400 8a3e 5f42 f83d 58f5 293e
00000320: 183f 6a3e 05d2 1c3e 4ee0 ab3d bfce 753e
00000330: 2e06 4b3e 0532 6c3e f37e 5c3e 9b81 973e
00000340: 78af 733e 65fa 4f3e 953f 1d3e d36c 763e
00000350: 39ee 343e f5ee 293e 25a1 383e 4eab 513e
00000360: 71b3 1f3e dccd 083e b417 db3d 48e9 423e
00000370: 8e76 473e b648 8f3e 4661 4b3e abf3 8e3d
00000380: eb0b 793e c0f9 993e 4e4e 843e a3e3 383e
00000390: 6b4c 4d3d b622 6c3e 44f3 1d3e 2a21 f73d
000003a0: a73f 823e 063e ee3d 4240 323e cfe8 0c3e
000003b0: f592 4a3e 3cbb 8c3e 640a e73d ef04 833e
000003c0: 9278 7d3e 531a 863e d6e9 7c3e e77c 873e
000003d0: 4397 fa3d 795a 093e 9b16 653e ee2e 383d
000003e0: d755 253e b3f1 923e fcfa e33d fb97 8b3e
000003f0: b060 253e 8855 3e3e 50dc 573e 5d1e 3a3e

fc2.weight f4 [19, 256]
-0.29545107 0.15937589 -0.18824707 -0.46256852 0.14286354 0.1338165 0.13623789 -0.22385295
-0.21784413 -0.2152 -0.2514257 -0.17329106 0.15303656 0.13742164 0.16302933 0.14740284
-0.18056951 -0.22475715 0.14824894 0.11582686 -0.21234968 0.16197328 0.098786846 -0.19984487
0.13405184 -0.1842166 -0.28785175 -0.19823052 -0.13756666 0.1733284 -0.07138879 0.17507099
-0.24212438 0.18524241 -0.13379522 -0.20156968 -0.25424764 -0.2502708 -0.22483955 0.12725113
-0.109792545 0.19901177 -0.2413675 -0.18733993 0.15621266 0.19129433 -0.23917502 0.12594992
-0.12082095 0.16230085 -0.2255448 0.1813878 -0.25297076 -0.19966443 0.08609581 0.15073459
-0.28559506 0.10642614 0.0998008 -0.17058423 0.16352116 0.06328347 -0.22490443 0.020871822
-0.2453888 -0.15396336 0.18891712 0.14202215 0.20185184 0.13932332 -0.21248345 -0.18848345
-0.2649312 -0.2186827 -0.17732373 -0.25640973 0.009730885 -0.23905317 -0.23661283 0.054548424
0.06887789 -0.118442774 -0.13130897 -0.2700119 -0.24942617 -0.13852262 0.14741217 0.14879428
0.18737882 0.17908588 0.04261801 0.09599886 -0.35401282 0.14361048 -0.21450111 -0.26136094
-0.20603208 0.11778439 -0.23248407 -0.2662671 0.16469914 -0.2410445 -0.25392857 0.12765442
0.13984299 0.15787843 -0.20310053 -0.16098745 0.18557774 -0.28942013 0.07831101 -0.22825383
0.14358962 0.18229753 -0.24077094 -0.2255245 -0.24011242 -0.25097302 -0.259815 -0.16320604
-0.23674934 -0.15695538 -0.24417998 -0.26416183 0.09063624 -0.19288377 -0.21396966 -0.2516628
-0.23885612 -0.2224858 -0.21794128 0.15440904 -0.19802614 0.1668417 -0.21791804 0.08965648
0.1315594 0.1754353 0.08092901 0.19103518 -0.20282447 -0.21390653 -0.20768875 0.16979054
0.16134332 -0.2739714 -0.22219831 -0.23665197 0.15470755 -0.20818774 0.06585085 -0.24639663
-0.20777662 -0.0116234 -0.19480896 0.16448398 -0.24548195 0.17073324 -0.24782582 -0.19060299
0.16682896 0.18503185 0.18921278 0.17874543 0.124495864 0.13215968 -0.10083954 -0.19303784
0.0068820957 0.12949418 -0.17267594 0.17453523 -0.23312871 -0.22163296 0.16227779 0.039873227
-0.19555722 -0.25574943 0.14275095 -0.16696979 0.13629854 0.16164114 -0.1608156 -0.20818883
-0.24023099 -0.215784 -0.21981834 0.15320173 0.14251089 0.13288562 -0.22173871 -0.274995
-0.18257424 0.1996162 -0.28463566 0.15016478 0.13465697 -0.21398185 -0.18104513 0.14227237
0.1555678 0.15747893 0.15644653 -0.26795924 -0.11588174 -0.30680823 -0.15328142 0.115297645
-0.16155595 0.13087727 0.19339035 0.15524898 -0.25063595 0.13742498 0.002138595 0.16008411
-0.1584097 -0.1963049 -0.14638926 0.14112504 0.15424305 -0.23047769 0.20635594 0.028110472
-0.21831293 0.114625186 -0.2111455 -0.21218404 0.17616107 0.13292314 0.122690715 -0.21255186
-0.1794426 -0.256778 0.14717789 -0.17563012 0.21066836 0.1781223 -0.1494645 -0.24654946
0.026943583 0.161521 0.18329878 -0.28812036 0.1903296 -0.2398865 -0.19610086 0.110276856
-0.23235364 0.119564824 0.20833741 -0.22181067 0.14831567 -0.19443753 -0.24612398 0.16954166
00000000: 5d45 97be 6f33 233e d7c3 40be c8d5 ecbe
00000010: d24a 123e 3107 093e f281 0b3e b539 65be
00000020: 8812 5fbe 645d 5cbe dfba 80be 3673 31be
00000030: 9eb5 1c3e 42b8 0c3e 29f1 263e c5f0 163e
00000040: 37e7 38be bd26 66be 92ce 173e a236 ed3d
00000050: 3272 59be 53dc 253e c250 ca3d 22a4 4cbe
00000060: e344 093e 47a3 3cbe 4e61 93be f1fc 4abe
00000070: 46de 0cbe 007d 313e 4934 92bd cf45 333e
00000080: 74ef 77be 30b0 3d3e 9d01 09be 4868 4ebe
00000090: bf2c 82be 7f23 80be 573c 66be 1f4e 023e
000000a0: eada e0bd bec9 4b3e 0b29 77be 0ad6 3fbe
000000b0: 36f6 1f3e a9e2 433e 4cea 74be 04f9 003e
000000c0: f970 f7bd 3232 263e 37f5 66be b9bd 393e
000000d0: 6285 81be d574 4cbe 0053 b03d 2b5a 1a3e
000000e0: 8439 92be f3f5 d93d 5d64 cc3d a2ad 2ebe
000000f0: 1772 273e c49a 813d 594d 66be 62fb aa3c
00000100: 3447 7bbe 92a8 1dbe 7d73 413e 416e 113e
00000110: 40b2 4e3e c6aa 0e3e 4395 59be ce01 41be
00000120: 10a5 87be 5cee 5fbe 5a94 35be 2348 83be
00000130: 4a6e 1f3c 5bca 74be a24a 72be 2b6e 5f3d
00000140: da0f 8d3d 2092 f2bd dc75 06be 003f 8abe
00000150: 9369 7fbe e0d8 0dbe 37f3 163e 875d 183e
00000160: 3ce0 3f3e 4a62 373e 3990 2e3d 0d9b c43d
00000170: 2b41 b5be a00e 133e 2ea6 5bbe 1ad1 85be
00000180: 13fa 52be f138 f13d 4e10 6ebe 2954 88be
00000190: e4a6 283e 5fd4 76be ed02 82be d7b7 023e
000001a0: 0033 0f3e e2aa 213e 96f9 4fbe e5d9 24be
000001b0: 1708 3e3e e02e 94be 8661 a03d 5fbb 69be
000001c0: 2809 133e 34ac 3a3e a88c 76be e5ef 66be
000001d0: 08e0 75be 897f 80be 7906 85be 7c1f 27be
000001e0: 6b6e 72be e9b8 20be 510a 7abe 3840 87be
000001f0: 7e9f b93d 5383 45be dd1a 5bbe f2d9 80be
00000200: b396 74be 51d3 63be 002c 5fbe 671d 1e3e
00000210: 5dc7 4abe 8dd8 2a3e e825 5fbe d19d b73d
00000220: 82b7 063e 50a5 333e 1cbe a53d ba9e 433e
00000230: 38b1 4fbe 500a 5bbe 5cac 54be 92dd 2d3e
00000240: 2f37 253e fb45 8cbe f487 63be e554 72be
00000250: a86b 1e3e 2b2f 55be cfdc 863d 664f 7cbe
00000260: 65c3 54be 1370 3ebc 007c 47be 7d6e 283e
00000270: 9f5f 7bbe b2d4 2e3e 0dc6 7dbe 6e2d 43be
00000280: 36d5 2a3e fd78 3d3e ffc0 413e 0b09 373e
00000290: b0f7 fe3d de54 073e f684 cebd b6ab 45be
000002a0: 3483 e13b 1f9a 043e f6d1 30be 5db9 323e
000002b0: 4bb9 6ebe c0f3 62be 262c 263e 1c52 233d
000002c0: 2740 48be 97f1 82be 4e2d 123e 21fa 2abe
000002d0: d891 0b3e 4185 253e d8ac 24be 742f 55be
000002e0: 1dff 75be 7bf6 5cbe 0f18 61be eae0 1c3e
000002f0: 60ee 113e 2b13 083e 790f 63be 25cc 8cbe
00000300: bef4 3abe 3068 4c3e c4bb 91be ccc4 193e
00000310: 84e3 093e 0f1e 5bbe e563 39be d9af 113e
00000320: 2a4d 1f3e 2842 213e 8533 203e f431 89be
00000330: 6853 edbd f815 9dbe cef5 1cbe 2c21 ec3d
00000340: ec6e 25be b104 063e 1f08 463e 97f9 1e3e
00000350: 5b53 80be 22b9 0c3e ac27 0c3b 17ed 233e
00000360: 2736 22be 2704 49be 11e7 15be 1583 103e
00000370: e4f1 1d3e 5802 6cbe f94e 533e ef47 e63c
00000380: 6d8d 5fbe 9cc0 ea3d 8736 58be c646 59be
00000390: 9163 343e 011d 083e 4545 fb3d 32a7 59be
000003a0: cdbf 37be 6878 83be cdb5 163e 62d8 33be
000003b0: 72b9 573e b165 363e 390d 19be 7677 7cbe
000003c0: cab8 dc3c c365 253e adb2 3b3e 8384 93be
000003d0: c3e5 423e cfa4 75be aace 48be d5d8 e13d
000003e0: 1dee 6dbe 67de f43d 6756 553e 5622 63be
000003f0: 10e0 173e a21a 47be ed07 7cbe 549c 2d3e

fc2.bias f4 [19]
-0.13480103 -0.16952315 -0.14654662 0.115181364 -0.13825503 -0.08386599 -0.22067034 -0.06219805
0.19679464 0.211455 -0.1767795 -0.094898276 -0.009931099 -0.08756264 -0.22394569 0.13476221
0.06028186 0.20649286 -0.17899148
00000000: 4809 0abe 7a97 2dbe 5110 16be 35e4 eb3d
00000010: ba92 0dbe efc1 abbd 68f7 61be 62c3 7ebd
00000020: 8984 493e a987 583e af05 35be 075a c2bd
00000030: 0cb6 22bc 0b54 b3bd 0552 65be 1bff 093e
00000040: 1dea 763d dd72 533e 8b49 37be
